mnist_cnn.pt (torch, 603724 bytes, 16 tensors)

conv1.weight f4 [8, 1, 3, 3]
-0.057551198 0.047630887 -0.3723854 0.13849421 -0.025400916 0.16211973 -0.01073054 0.0956353
0.19143818 0.070299156 0.2232908 -0.06883203 0.04170744 0.0705294 0.022724066 -0.005780822
0.2576892 0.065837584 -0.20861457 -0.14298423 -0.06794336 -0.1425305 -0.12775718 -0.0607286
0.2356261 0.22194842 -0.25558874 0.169034 0.21868482 0.39565635 0.14557657 -0.2568442
-0.27585432 -0.32122928 0.1343735 -0.13206029 0.08256658 -0.034026165 0.35200894 -0.21270312
0.19192356 0.05753519 -0.3369514 0.0494772 -0.122099794 -0.010007678 -0.14866222 -0.042122845
-0.38823766 -0.19374456 0.15609352 -0.1407097 0.28873888 0.21082169 -0.1418982 -0.23359945
0.14853998 0.006647659 -0.03953776 0.2644014 0.17519657 0.4122913 -0.17529339 -0.10262083
-0.004481083 0.1013218 -0.22767037 -0.1916906 0.25041124 -0.113172494 0.13902868 0.07104812
00000000: ceba 6bbd 9b18 433d 4da9 bebe 6dd1 0d3e
00000010: 9515 d0bc b702 263e 26cf 2fbc 71dc c33d
00000020: 5f08 443e 01f9 8f3d 58a6 643e cff7 8cbd
00000030: 6cd5 2a3d b871 903d d227 ba3c 0d6d bdbb
00000040: d7ef 833e dbd5 863d 0f9f 55be 756a 12be
00000050: e325 8bbd 84f3 11be c7d2 02be 8dbe 78bd
00000060: f847 713e 7246 633e 87dc 82be 4017 2d3e
00000070: eaee 5f3e 7893 ca3e 0612 153e 1581 83be
00000080: c73c 8dbe 2a78 a4be 3599 093e d03a 07be
00000090: ab18 a93d 055f 0bbd 843a b43e d9ce 59be
000000a0: 9c87 443e 05aa 6b3d e584 acbe 9ba8 4a3d
000000b0: 750f fabd 3ef7 23bc e93a 18be 0189 2cbd
000000c0: 16c7 c6be f964 46be fbd6 1f3e 3416 10be
000000d0: 95d5 933e a4e1 573e c34d 11be b234 6fbe
000000e0: dd1a 183e 9bd4 d93b 59f2 21bd 9f5f 873e
000000f0: bb66 333e d817 d33e 1c80 33be df2a d2bd
00000100: 0cd6 92bb ce81 cf3d 6c22 69be 8a4a 44be
00000110: e735 803e fbc6 e7bd 895d 0e3e ad81 913d

conv1.bias f4 [8]
0.10939564 0.07326361 0.121207185 0.16511376 -0.3087439 0.16776921 -0.23437749 -0.25133735
00000000: d20a e03d 3b0b 963d 793b f83d 9513 293e
00000010: ae13 9ebe b1cb 2b3e a700 70be 4aaf 80be

bn1.weight f4 [8]
0.9711895 0.95934004 1.1398467 0.9683785 0.9817604 1.0925246 1.0124714 0.94817877
00000000: e09f 783f 4f97 753f 7fe6 913f a7e7 773f
00000010: a654 7b3f d9d7 8b3f aa98 813f d8bb 723f

bn1.bias f4 [8]
-0.07757499 -0.056024987 -0.0016007188 0.040904317 -0.020593408 -0.03897941 -0.08497208 -0.14962262
00000000: a3df 9ebd 757a 65bd 36cf d1ba 498b 273d
00000010: 82b3 a8bc e0a8 1fbd d805 aebd ac36 19be

bn1.running_mean f4 [8]
0.12345441 0.12825868 0.077396125 0.17033243 -0.30700296 0.1460054 -0.19997486 -0.25758544
00000000: aad5 fc3d 3e56 033e dc81 9e3d a06b 2e3e
00000010: 7e2f 9dbe 7182 153e 36c6 4cbe 3de2 83be

bn1.running_var f4 [8]
0.1343948 0.38597134 0.33045828 0.30796498 0.20711528 0.45537716 0.38015482 0.2021378
00000000: ca9e 093e 099e c53e d431 a93e 96ad 9d3e
00000010: 0716 543e 3227 e93e a7a3 c23e 36fd 4e3e

conv2.weight f4 [16, 8, 3, 3]
0.028975308 -0.03642818 0.01481401 -0.042412464 -0.072883874 0.073835544 -0.07977736 -0.006417547
-0.010526995 -0.08622595 -0.027183464 -0.068020955 -0.0697364 -0.04721718 -0.006177134 -0.060349308
-0.12938234 -0.11077498 0.17935173 0.00737622 0.04757867 0.032217 -0.21626638 -0.17290427
-0.09285467 -0.1869808 -0.08145295 0.053287998 0.06506699 0.07247617 0.12396341 -0.032307018
0.034627922 0.12551154 0.093245775 0.051264618 -0.03160348 -0.14272512 -0.16663182 -0.0585949
-0.0098897675 -0.19397582 -0.035355262 -0.17399597 -0.16455849 0.047332056 0.041256364 0.10859575
0.02226785 0.11098156 0.17192563 0.073741265 0.06254103 0.038192965 0.09326103 0.027114118
-0.076929666 -0.039741084 -0.0042924965 0.045546334 -0.049612265 0.005797225 0.010816885 0.06088784
0.04141069 0.017411586 0.13317445 0.11796159 -0.0002443215 0.11000801 0.008320605 -0.01763419
-0.11173309 -0.08685466 -0.088998824 -0.01677343 0.12952965 0.029430354 -0.11587167 0.038695496
0.0751247 -0.00149146 -0.09744062 -0.0041137757 -0.11071797 -0.061931018 -0.12361808 -0.11311686
-0.0694792 0.018064141 0.032222852 0.11042358 0.19596018 0.013331499 0.009578411 0.03129036
-0.11718237 0.08619975 -0.076688014 0.052132145 -0.01833691 0.027151007 0.04656398 0.1893935
-0.04523318 0.023397999 0.055552315 -0.05622847 0.057568375 -0.04164496 -0.13532697 -0.00029410905
0.030222967 -0.15642536 0.018449526 0.026972916 0.09325642 -0.016082596 0.064455606 -0.09103581
0.21824689 0.010389592 0.10610468 0.12368319 -0.006421397 0.0009605305 -0.025867878 0.040453203
-0.00024291374 0.01822972 -0.09751289 0.099889 0.12286572 0.098027244 0.044661768 -0.08374059
-0.123053335 0.058631543 -0.045687947 0.0906491 -0.09671338 -0.034018904 0.037012044 -0.11908061
0.0072838287 0.13336255 0.13101698 0.12266121 0.017467627 -0.019786708 0.11226508 -0.007422054
0.027765797 -0.0082759885 -0.05891201 0.08934249 0.010357996 -0.12913221 -0.10327968 -0.06946741
0.023150364 0.025650905 -0.09433118 0.041367866 -0.057772987 -0.03334885 0.03486686 0.025610454
0.121247925 -0.0049683563 0.015931569 0.074951716 0.01046196 -0.037437137 0.022870695 0.05007108
0.049622983 -0.056884583 0.11633944 0.15522271 -0.007865346 0.09900476 0.06728962 -0.09194667
-0.013853018 -0.0958094 0.064830095 -0.1428605 -0.00307005 -0.031534888 0.03099936 0.18938492
-0.10108328 -0.051882178 -0.11033137 -0.09131184 -0.13280223 0.033100467 -0.15066552 -0.025480546
0.20101237 0.011632358 -0.022114756 -0.011162947 -0.12774174 0.09394456 0.008234447 -0.0507429
-0.05978547 -0.040430874 0.017176395 0.004369132 -0.045777246 -0.12711221 -0.16940345 -0.005558437
-0.06619954 -0.04524024 -0.027462054 -0.05786207 -0.054693475 -0.08669829 -0.030868197 -0.098373845
-0.06736429 0.06743413 -0.017731804 0.052824225 -0.028071353 -0.065607496 -0.16440548 -0.053719025
0.025906732 -0.14442222 -0.07525172 0.051685624 -0.025003608 0.0070722504 -0.027039679 -0.07290506
-0.014316849 -0.13938129 -0.063689716 -0.022361996 0.0047400673 0.0837465 -0.07135905 0.04649688
0.116181836 -0.021239353 0.12531842 0.021672135 -0.011382091 -0.04502405 -0.118172035 -0.099149875
00000000: a05d ed3c b735 15bd 76b6 723c b1b8 2dbd
00000010: 2444 95bd 1737 973d 5062 a3bd 494a d2bb
00000020: 6b79 2cbc 3b97 b0bd dbaf debc 924e 8bbd
00000030: f5d1 8ebd cd66 41bd 8e69 cabb d630 77bd
00000040: ce7c 04be fedd e2bd fba7 373e 38b4 f13b
00000050: dae1 423d f9f5 033d ef74 5dbe d10d 31be
00000060: 972a bebd e577 3fbe ced0 a6bd 8444 5a3d
00000070: d841 853d 636e 943d 87e0 fd3d 5d54 04bd
00000080: 02d6 0d3d 1986 003e a4f7 be3d d9fa 513d
00000090: a772 01bd 8926 12be 88a1 2abe 3501 70bd
000000a0: b108 22bc 99a1 46be aed0 10bd 002c 32be
000000b0: 0582 28be 42df 413d 6ffc 283d 7367 de3d
000000c0: 116b b63c 4d4a e33d 460d 303e a905 973d
000000d0: 8315 803d 3a70 1c3d a4ff be3d 6d1e de3c
000000e0: 4d8d 9dbd 8cc7 22bd 12a8 8cbb cb8e 3a3d
000000f0: 3b36 4bbd a6f6 bd3b 4e39 313c 8765 793d
00000100: 419e 293d bea2 8e3c e25e 083e d995 f13d
00000110: 4718 80b9 e14b e13d 2653 083c 9475 90bc
00000120: 51d4 e4bd dbe0 b1bd 0445 b6bd 6f68 89bc
00000130: 6ca3 043e ed17 f13c 204e edbd 2b7f 1e3d
00000140: fbda 993d 187d c3ba f38e c7bd dacc 86bb
00000150: 1ac0 e2bd 61ab 7dbd 7a2b fdbd d0a9 e7bd
00000160: 1c4b 8ebd 40fb 933c 1cfc 033d c225 e23d
00000170: c9a9 483e 5c6c 5a3c c4ee 1c3c 522a 003d
00000180: 4ffd efbd 7f89 b03d 9b0e 9dbd 8488 553d
00000190: 4a37 96bc ca6b de3c dfb9 3e3d 5ff0 413e
000001a0: 6d46 39bd 29ad bf3c d38a 633d d34f 66bd
000001b0: d1cc 6b3d e893 2abd 2793 0abe a632 9ab9
000001c0: 2896 f73c f82d 20be 7623 973c 4ef6 dc3c
000001d0: 39fd be3d a6bf 83bc 4d01 843d fc70 babd
000001e0: 1d7c 5f3e 1b39 2a3c 694d d93d 9d4d fd3d
000001f0: 956a d2bb 1ccc 7b3a dfe8 d3bc 42b2 253d
00000200: a9b6 7eb9 7e56 953c d7b4 c7bd 9b92 cc3d
00000210: 06a1 fb3d 82c2 c83d 42ef 363d 3080 abbd
00000220: 6303 fcbd a127 703d 4923 3bbd 3ca6 b93d
00000230: aa11 c6bd 6857 0bbd f199 173d 89e0 f3bd
00000240: 2fad ee3b 3190 083e 5129 063e cd35 fb3d
00000250: 4518 8f3c bc17 a2bc 3ceb e53d b434 f3bb
00000260: 1975 e33c 0398 07bc b84d 71bd 32f9 b63d
00000270: 96b4 293c 3c3b 04be 4c84 d3bd ee44 8ebd
00000280: d5a5 bd3c d921 d23c b530 c1bd 5a71 293d
00000290: 5ea3 6cbd ce98 08bd 8dd0 0e3d 04cd d13c
000002a0: d550 f83d 98cd a2bb ec82 823c 4980 993d
000002b0: a468 2b3c af57 19bd 535b bb3c 5517 4d3d
000002c0: 7841 4b3d cfff 68bd 5f43 ee3d b4f2 1e3e
000002d0: a7dd 00bc 02c3 ca3d 24cf 893d 894e bcbd
000002e0: c5f7 62bc b837 c4bd a4c5 843d 064a 12be
000002f0: e432 49bb ba2a 01bd 5ff2 fd3c 1fee 413e
00000300: c004 cfbd 6882 54bd 6af5 e1bd b401 bbbd
00000310: 4ffd 07be 5b94 073d 1048 1abe 94bc d0bc
00000320: 30d6 4d3e a595 3e3c 012a b5bc cbe4 36bc
00000330: bbce 02be 0166 c03d c6e9 063c cad7 4fbd
00000340: 9ce1 74bd d89a 25bd 83b5 8c3c f02a 8f3b
00000350: ec80 3bbd b429 02be 1978 2dbe 8d23 b6bb
00000360: a093 87bd d44d 39bd 1af8 e0bc c700 6dbd
00000370: 4406 60bd e08e b1bd 4ddf fcbc 3a78 c9bd
00000380: 4af6 89bd e81a 8a3d 4a42 91bc 375e 583d
00000390: e5f5 e5bc 395d 86bd e959 28be 7b08 5cbd
000003a0: 5b3a d43c 6be3 13be 931d 9abd 4eb4 533d
000003b0: 5ed4 ccbc 56be e73b 5182 ddbc 404f 95bd
000003c0: 3891 6abc f8b9 0ebe c16f 82bd 8130 b7bc
000003d0: 9152 9b3b 4983 ab3d b224 92bd 8373 3e3d
000003e0: bef0 ed3d 27fe adbc 7953 003e c389 b13c
000003f0: f37b 3abc 236b 38bd 2e04 f2bd 170f cbbd

conv2.bias f4 [16]
0.086290106 -0.035742424 -0.027686933 -0.031685058 -0.005697653 -0.051624916 0.01602869 -0.07596172
0.048485983 -0.09882309 -0.042761564 -0.0823269 0.07936845 0.08095587 -0.093666054 -0.06421377
00000000: deb8 b03d a666 12bd b5cf e2bc 31c8 01bd
00000010: 61b3 babb a674 53bd 994e 833c d191 9bbd
00000020: 3d99 463d c363 cabd c026 2fbd 019b a8bd
00000030: ed8b a23d 31cc a53d fdd3 bfbd 8282 83bd

bn2.weight f4 [16]
1.0229422 0.9213313 0.9947435 1.076655 0.9742221 0.90891105 1.1375377 1.1528168
0.8965911 1.0326384 1.163144 1.1020888 1.1185439 1.0895585 0.99396366 1.0704954
00000000: c5ef 823f 5edc 6b3f 83a7 7e3f d5cf 893f
00000010: 9f66 793f 65ae 683f d69a 913f 808f 933f
00000020: ff86 653f 7f2d 843f e7e1 943f 3f11 8d3f
00000030: 722c 8f3f a776 8b3f 6774 7e3f fe05 893f

bn2.bias f4 [16]
-0.35062206 -0.35091728 -0.20180082 -0.2159885 -0.33303675 -0.32474196 0.08704201 -0.19402525
-0.2510514 -0.20466731 -0.03460058 -0.16370064 -0.019014474 -0.19039667 -0.3038132 -0.19214876
00000000: bc84 b3be 6eab b3be e0a4 4ebe 172c 5dbe
00000010: cb83 aabe 9444 a6be 1543 b23d 8eae 46be
00000020: cf89 80be 4f94 51be 56b9 0dbd 24a1 27be
00000030: 3ec4 9bbc 58f7 42be 678d 9bbe a5c2 44be

bn2.running_mean f4 [16]
-0.18593618 0.024226222 -0.048264533 -0.15098292 -0.32308874 -0.2085402 -0.15602566 -0.27504316
-0.13156892 0.11963284 0.005603409 -0.05951769 0.24510348 0.080041885 -0.27175438 0.17988504
00000000: 0e66 3ebe 1276 c63c 08b1 45bd 449b 1abe
00000010: e36b a5be 908b 55be 31c5 1fbe 75d2 8cbe
00000020: 01ba 06be 1002 f53d cd9c b73b d2c8 73bd
00000030: 68fc 7a3e 00ed a33d 6423 8bbe c933 383e

bn2.running_var f4 [16]
0.21479738 0.23786882 0.14872243 0.18048783 0.14440326 0.93890506 0.14758642 0.24341734
0.56011355 0.15823057 0.2992382 0.29596928 0.2283611 0.41766307 0.22644901 0.27962852
00000000: d8f3 5b3e e293 733e b14a 183e cdd1 383e
00000010: 73de 133e 155c 703f e520 173e 6542 793e
00000020: 9a63 0f3f 3207 223e c035 993e 4989 973e
00000030: 7ed7 693e efd7 d53e 40e2 673e 782b 8f3e

fc1.weight f4 [64, 2304]
0.014469873 -0.0021434105 0.020621404 0.018012177 0.010196899 0.021655912 0.021183494 0.043941177
0.07200291 0.052166298 0.039773215 0.009543694 -0.0116761895 -0.026812889 0.040198125 0.030572344
-0.008428244 0.06639109 0.0027561951 0.032052968 0.01627051 0.052619025 0.04724163 0.030305555
-0.02519819 0.0025199489 0.006279241 -0.035524704 -0.0062850295 0.002682237 0.011482499 0.02075305
0.054528452 0.06937406 0.06469377 0.018837215 0.0025323536 0.009428636 0.010019198 -0.03886379
-0.016874537 -0.009117025 -0.008526898 -0.0487287 -0.038596023 0.011010199 -0.0057268636 0.020032294
0.015973674 0.004699891 -0.019149665 -0.0084931385 0.01180776 -0.00014358718 -0.044694893 -0.05754536
-0.10025055 -0.07809125 -0.053444557 0.027210752 -0.010758693 0.014996539 0.016357414 0.025809648
0.03170611 0.045173164 0.019251749 -0.016058134 -0.06917815 -0.085164 -0.051305152 0.0040041655
-0.0033450571 0.031206323 -0.021323083 -0.004947843 0.006862126 0.047566164 0.015184463 -0.031234842
-0.05044564 -0.041264497 -0.044421535 -0.012304668 -0.01931257 0.007935076 -0.030617256 -0.036595147
-0.0023694325 0.010124369 -0.011961268 0.011000728 -0.026279999 -0.019417914 -0.02009452 -0.024246227
-0.013899501 -0.030336335 -0.0028116398 0.02539205 0.0027433909 0.0031600087 -0.017855331 -0.0015974207
0.026534613 -0.00254794 -0.02412072 0.007396807 -0.007470905 0.02382683 0.032815266 0.042221867
-0.0017245064 0.0062703555 0.016390841 -0.008712425 0.04044097 0.015194585 -0.0065853973 -0.0015097039
-0.02223404 -0.012382256 -0.007423597 0.011596498 0.026977144 0.034117285 0.034155536 0.019540312
-0.009653683 0.010145498 0.02104866 -0.006531018 -0.01100294 -0.0050439057 -0.02047292 -0.016923437
-0.013650059 0.025676833 0.037505932 0.0031241216 -0.010260428 -0.009861289 -0.018669056 0.009589762
-0.03214589 -0.002348859 -0.044512432 -0.0041778367 0.014403657 -0.03835631 -0.009587484 0.021626404
0.011405735 -0.014821098 0.005957188 -0.008107658 0.01451858 -0.019266086 -0.015478963 0.04543423
-0.006844882 -0.014305064 -0.00622792 0.00458889 -0.047725987 -0.0070402147 0.00021426998 0.011371664
-0.012418239 -0.037842844 0.008068529 -0.015106882 -0.041207768 -0.020276185 -0.004317894 -0.0017805854
-0.019846434 0.025954558 0.032324623 0.04471047 -0.013486728 -0.022439592 0.004921806 -0.013205867
-0.00992102 -0.020726988 0.010921267 -0.023876198 -0.016141381 -0.006718319 0.03149374 0.029383164
-0.0037720557 -0.021007312 -0.02241458 -0.015556221 -0.026177516 0.032674145 0.00044414453 -0.0025631916
0.004731995 0.036810294 0.04163793 0.016089596 -0.030056814 -0.0028581098 0.019251745 -0.017720595
-0.011659242 0.023662688 0.06772604 0.041828714 0.04011123 0.019985167 0.0052033635 0.00046669226
-0.032916505 0.005430503 -0.03316153 -0.046153452 -0.00664108 0.013766437 0.08207064 0.030089172
0.02938433 -0.0142782265 0.0007749229 -0.02239592 -0.03537978 -0.0003767338 -0.027726248 -0.011915615
0.018523842 -0.03765724 -0.009301068 -0.020635376 -0.0013398774 -0.014286294 -0.017315952 -0.023914695
-0.01133157 0.01969106 0.019119497 0.020626599 0.04447706 -0.017799724 -0.023440182 -0.037060205
0.018909369 -0.0056879567 -0.029096438 -0.038098674 -0.026105635 -0.02626535 0.02653697 0.024351288
00000000: 0c13 6d3c 7678 0cbb 38ee a83c 468e 933c
00000010: e510 273c bd67 b13c 0289 ad3c aafb 333d
00000020: 4376 933d 54ac 553d 3de9 223d 275d 1c3c
00000030: 7d4d 3fbc b4a6 dbbc caa6 243d da72 fa3c
00000040: 9e16 0abc 0df8 873d 48a1 343b f949 033d
00000050: bc49 853c 0c87 573d 7080 413d 5b43 f83c
00000060: 6f6c cebc ba25 253b 17c2 cd3b 5a82 11bd
00000070: a6f2 cdbb 78c8 2f3b 1721 3c3c 4d02 aa3c
00000080: 3a59 5f3d fd13 8e3d 2b7e 843d 8150 9a3c
00000090: d8f5 253b 917a 1a3c 9027 243c a32f 1fbd
000000a0: 783c 8abc 935f 15bc 67b4 0bbc bf97 47bd
000000b0: dd16 1ebd 1f64 343c 6aa8 bbbb c41a a43c
000000c0: 39db 823c 8b01 9a3b c2df 9cbc ce26 0bbc
000000d0: 5675 413c e48f 16b9 fe11 37bd afb4 6bbd
000000e0: 2950 cdbd 4eee 9fbd aee8 5abd 15e9 de3c
000000f0: 3b45 30bc 0bb4 753c fcff 853c c16e d33c
00000100: 44de 013d 7f07 393d d8b5 9d3c 598c 83bc
00000110: 46ad 8dbd 776a aebd 5a25 52bd 6035 833b
00000120: bf38 5bbb 67a4 ff3c bfad aebc 8421 a2bb
00000130: afdb e03b bdd4 423d 41c8 783c 36e0 ffbc
00000140: 16a0 4ebd f604 29bd 5bf3 35bd 8599 49bc
00000150: 6535 9ebc 1f02 023c 0ad1 fabc cbe4 15bd
00000160: 7b48 1bbb aee0 253c 32f9 43bc 663c 343c
00000170: 2749 d7bc 5112 9fbc 439d a4bc 06a0 c6bc
00000180: bcba 63bc e883 f8bc 7d43 38bb fd02 d03c
00000190: 76ca 333b 2618 4f3b 5845 92bc 8b60 d1ba
000001a0: 1e5f d93c 57fb 26bb d198 c5bc ea60 f23b
000001b0: 7ece f4bb 7c30 c33c 4d69 063d d6f0 2c3d
000001c0: d508 e2ba 8e77 cd3b 1646 863c 8fbe 0ebc
000001d0: 6ea5 253d b5f2 783c 51ca d7bb 42e1 c5ba
000001e0: 2924 b6bc f2de 4abc a541 f3bb 3dff 3d3c
000001f0: 2cff dc3c 91be 0b3d ade6 0b3d 0113 a03c
00000200: 7b2a 1ebc 4e39 263c 3d6e ac3c 2602 d6bb
00000210: ad45 34bc 5947 a5bb d3b6 a7bc 05a3 8abc
00000220: 7fa4 5fbc 3958 d23c d29f 193d 10be 4c3b
00000230: 5b1b 28bc 3e91 21bc d9ef 98bc 611e 1d3c
00000240: 69ab 03bd 51ef 19bb ab52 36bd 3ce6 88bb
00000250: 51fd 6b3c 821b 1dbd d314 1dbc db29 b13c
00000260: 1fdf 3a3c 31d4 72bc 8434 c33b fbd5 04bc
00000270: 57df 6d3c e9d3 9dbc 7a9b 7dbc 3e19 3a3d
00000280: 084b e0bb ca5f 6abc 9413 ccbb 665e 963b
00000290: 537c 43bd 9ab1 e6bb a9ad 6039 3750 3a3c
000002a0: df75 4bbc 1901 1bbd dd31 043c db82 77bc
000002b0: 7ac9 28bd 3e1a a6bc 1f7d 8dbb 8862 e9ba
000002c0: fd94 a2bc a79e d43c d366 043d 5322 373d
000002d0: 70f7 5cbc 3cd3 b7bc 1a47 a13b 6c5d 58bc
000002e0: c68b 22bc a5cb a9bc 1def 323c 0498 c3bc
000002f0: ee3a 84bc 5825 dcbb 94ff 003d f6b4 f03c
00000300: 9834 77bb 8717 acbc c89e b7bc 85df 7ebc
00000310: 3b72 d6bc 53d5 053d 12dc e839 38fb 27bb
00000320: da0e 9b3b 64c6 163d 898c 2a3d 54ce 833c
00000330: b539 f6bc 204f 3bbb d6b5 9d3c c82a 91bc
00000340: 6806 3fbc 41d8 c13c f3b3 8a3d 9654 2b3d
00000350: ac4b 243d efb7 a33c fa80 aa3b 60ae f439
00000360: 75d3 06bd 5cf2 b13b 62d4 07bd 670b 3dbd
00000370: 6b9d d9bb 9f8c 613c a714 a83d 917d f63c
00000380: 68b7 f03c 39ef 69bc 3224 4b3a a677 b7bc
00000390: 63ea 10bd 5b84 c5b9 2822 e3bc b639 43bc
000003a0: 50bf 973c 7a3e 1abd 8263 18bc 850b a9bc
000003b0: d39e afba 0f11 6abc 2fda 8dbc c0e8 c3bc
000003c0: 0da8 39bc 254f a13c 7ea0 9c3c 1df9 a83c
000003d0: 942d 363d bad0 91bc a005 c0bc 71cc 17bd
000003e0: d2e7 9a3c 0a62 babb a75b eebc 5b0d 1cbd
000003f0: 7cdb d5bc 6e2a d7bc 0f64 d93c 5a7c c73c

fc1.bias f4 [64]
-0.043730702 -0.058292754 -0.067054726 -0.055008262 -0.05338696 -0.024196725 -0.035110645 -0.045517746
0.0031736398 -0.03953248 -0.06832672 -0.04755964 -0.02745787 -0.007689005 -0.053140946 -0.0419307
-0.014745789 -0.06168441 -0.022995073 -0.046940554 -0.048815075 0.00089316594 -0.047885127 -0.06326415
-0.01012516 -0.039153058 -0.04763473 -0.034684867 -0.05325431 -0.046033494 -0.05746968 0.0019254092
-0.014851759 -0.06867 -0.017048838 -0.04184021 -0.052162528 -0.04423666 -0.06677509 -0.06509492
-0.06813256 -0.007410534 0.019276071 -0.030395731 -0.04966085 0.017157944 -0.051468186 -0.029789992
-0.056292366 -0.065799676 -0.029588643 0.0046741026 -0.017885435 -0.040486153 -0.078977965 0.013168702
-0.042343143 -0.08345699 -0.049622077 -0.006833274 -0.063727394 -0.0017464459 -0.063695684 -0.06883195
00000000: f71e 33bd 62c4 6ebd fd53 89bd 5850 61bd
00000010: 49ac 5abd 3638 c6bc 2ed0 0fbd d170 3abd
00000020: d7fc 4f3b cfec 21bd e1ee 8bbd e6cd 42bd
00000030: 54ef e0bc 0df4 fbbb 52aa 59bd 87bf 2bbd
00000040: 5298 71bc cba8 7cbd 2a60 bcbc bd44 40bd
00000050: 51f2 47bd 5a23 6a3a 3223 44bd a290 81bd
00000060: 00e4 25bc f55e 20bd a21c 43bd b811 0ebd
00000070: 3121 5abd 9e8d 3cbd 5465 6bbd 035e fc3a
00000080: cb54 73bc dba2 8cbd 01aa 8bbc a460 2bbd
00000090: 60a8 55bd 8031 35bd 61c1 88bd 7c50 85bd
000000a0: 1589 8bbd 11d4 f2bb dae8 9d3c 7800 f9bc
000000b0: 2d69 4bbd d18e 8c3c 4ed0 52bd 240a f4bc
000000c0: d392 66bd fbc1 86bd e263 f2bc 3729 993b
000000d0: 7a84 92bc cfd4 25bd 33bf a1bd 8ac1 573c
000000e0: 0170 2dbd 80eb aabd 8540 4bbd a8e9 dfbb
000000f0: 8283 82bd 00e9 e4ba e272 82bd c4f7 8cbd

fc2.weight f4 [10, 64]
0.038960658 -0.3089285 -0.29178333 0.027953766 -0.036404118 -0.26321307 0.12520735 -0.30553296
-0.26323855 -0.083203144 -0.19543654 0.0839079 -0.20521481 -0.27879563 0.05018249 -0.20783688
-0.335295 0.0049897344 -0.19939731 0.047967397 0.03875937 -0.111541696 0.0866185 0.054985903
0.12805513 0.01752807 0.073365144 0.040800467 0.04244197 -0.25299373 -0.2550243 -0.23236908
-0.26417452 -0.28138524 -0.31344914 -0.21127197 -0.25780025 0.10788479 0.053446706 0.068485305
-0.012203278 -0.15301107 -0.024462994 0.20008527 0.09266806 0.091795675 -0.20412806 -0.22285941
-0.12548073 0.030905284 -0.34146112 0.09699277 0.027738638 -0.2718787 0.05846326 -0.17145677
-0.024036905 -0.17253466 -0.2857497 0.12432682 -0.1922582 0.08352137 -0.17798914 -0.077888496
0.08636263 -0.16765381 -0.20195831 -0.32236958 -0.2829845 -0.2077793 -0.1931398 0.029348822
0.18048637 -0.1117592 -0.16857006 -0.19687395 0.14679423 -0.18839084 -0.31175345 -0.25638267
0.046748128 0.05335472 0.15172198 0.065309145 0.03883084 0.02397183 0.10995777 -0.24431384
0.11499014 -0.28140625 -0.102055274 -0.3081294 0.08965193 -0.2599054 0.10726151 0.05788289
0.11578732 -0.19857384 0.10995506 -0.2827773 -0.2540344 0.109517455 -0.2543992 -0.1637355
-0.2160434 -0.011160978 -0.04642139 -0.20838594 -0.15544948 -0.05956388 -0.2518627 -0.13351817
0.09217434 -0.34138143 0.12562999 -0.07484092 -0.1160135 -0.32053247 -0.19059001 0.15497261
-0.04880757 -0.21962652 -0.15018897 -0.17938899 -0.2028151 0.084695615 -0.20761713 -0.21099265
-0.3148375 -0.24001615 -0.29465055 -0.15842217 0.09528553 -0.090338856 -0.1170657 0.01845057
-0.22019067 -0.14204358 0.07447828 -0.2972823 -0.18948321 -0.21249232 -0.17475517 -0.050527252
0.023800956 -0.018491844 -0.097741276 -0.2770678 0.052325033 -0.2255679 0.08343271 0.02808561
-0.2157993 -0.23392211 0.091660626 -0.30821303 0.098091036 -0.28123415 -0.18933316 -0.17786789
0.007520919 -0.03516182 -0.12969951 0.0946917 -0.1890911 -0.25449973 0.05611916 0.13895781
-0.03545053 0.025916636 0.012005694 -0.19476244 -0.1667479 -0.031026073 -0.26492998 0.10009789
-0.088615626 -0.13686946 0.046832662 -0.06534919 0.0076913433 -0.24742754 0.065461695 -0.23488371
0.09560099 0.07059199 0.071498044 -0.15975392 0.11701374 -0.0825725 -0.13800713 0.13909002
-0.19657464 0.09839793 0.082076244 -0.23902252 0.09884854 0.09232255 -0.016112773 -0.18424416
-0.29771602 -0.2552243 0.03902086 -0.07328467 -0.21090373 -0.23141311 -0.26523346 -0.24636158
-0.19651261 0.05770662 -0.26940742 -0.24977697 -0.23657519 0.11669597 0.021107232 0.021747736
-0.3181328 -0.02798183 -0.18836194 -0.25001758 -0.19273052 -0.13249701 -0.25404656 0.02610767
-0.21446009 0.08587629 0.124970004 -0.096853845 0.06715093 -0.32804415 0.03233829 -0.18806627
-0.31643057 0.0019497469 0.02586275 -0.17193158 -0.028339786 0.041815814 0.08591983 0.10573667
-0.22307524 -0.22821733 0.07154123 -0.08313159 -0.015162357 -0.19988082 0.032483213 0.10876869
-0.13994774 0.0802381 0.07675583 0.123963915 -0.17114896 -0.112367235 -0.22063039 -0.19958995
00000000: 3695 1f3d e02b 9ebe a064 95be 4cff e43c
00000010: 7c1c 15bd ddc3 86be 5b36 003e d16e 9cbe
00000020: 34c7 86be 6966 aabd 8420 48be e8d7 ab3d
00000030: d523 52be 4dbe 8ebe 288c 4d3d 31d3 54be
00000040: c9ab abbe ed80 a33b cf2e 4cbe 7679 443d
00000050: 25c2 1e3d f96f e4bd 0a65 b13d e638 613d
00000060: e220 033e 0797 8f3c 7740 963d 641e 273d
00000070: a2d7 2d3d 6588 81be 8c92 82be 29f2 6dbe
00000080: e241 87be ba11 90be 687c a0be ae57 58be
00000090: 65fe 83be b3f2 dc3d efea 5a3d 0642 8c3d
000000a0: 42f0 47bc efae 1cbe 9e66 c8bc 27e3 4c3e
000000b0: c0c8 bd3d 5fff bb3d f206 51be 4235 64be
000000c0: 057e 00be 142d fd3c fed3 aebe 25a4 c63d
000000d0: 243c e33c af33 8bbe 2c77 6f3d 5d92 2fbe
000000e0: 0be9 c4bc edac 30be c94d 92be 0f9f fe3d
000000f0: 55df 44be 410d ab3d c942 36be 0184 9fbd
00000100: e4de b03d 71ad 2bbe 29ce 4ebe a00d a5be
00000110: 58e3 90be 19c4 54be 71c6 45be f16c f03c
00000120: 6bd1 383e 02e2 e4bd a19d 2cbe 5399 49be
00000130: 3a51 163e 87e9 40be 269e 9fbe 9744 83be
00000140: f77a 3f3d 7b8a 5a3d 025d 1b3e cdc0 853d
00000150: 160d 1f3d 9260 c43c 8a31 e13d 682d 7abe
00000160: f37f eb3d 7b14 90be 5b02 d1bd 23c3 9dbe
00000170: 6e9b b73d 5212 85be ecab db3d 9c16 6d3d
00000180: e721 ed3d f156 4bbe 1e30 e13d 30c8 90be
00000190: cc10 82be b04a e03d 9d40 82be 47aa 27be
000001a0: 7b3a 5dbe 89dc 36bc 5b24 3ebd 2063 55be
000001b0: 262e 1fbe 41f9 73bd 26f4 80be fdb8 08be
000001c0: e6c5 bc3d 8cc9 aebe 26a5 003e 3246 99bd
000001d0: 7c98 edbd d51c a4be 072a 43be 24b1 1e3e
000001e0: 72ea 47bd c6e5 60be 23cb 19be bfb1 37be
000001f0: c3ae 4fbe e574 ad3d 9699 54be 750e 58be
00000200: 6132 a1be cbc6 75be 70dc 96be 6c39 22be
00000210: 0f25 c33d 9403 b9bd 24c0 efbd a625 973c
00000220: aa79 61be df73 11be 1288 983d 6335 98be
00000230: e307 42be 9697 59be 05f3 32be aaf5 4ebd
00000240: 39fa c23c 357c 97bc 942c c8bd d5db 8dbe
00000250: c652 563d 46fb 66be c5de aa3d cb13 e63c
00000260: 7efa 5cbe 4789 6fbe 91b8 bb3d 19ce 9dbe
00000270: f4e3 c83d ecfd 8fbe 8de0 41be 0023 36be
00000280: 0b72 f63b d705 10bd f3cf 04be b9ed c13d
00000290: 19a1 41be ca4d 82be 34dd 653d f54a 0e3e
000002a0: 9334 11bd 204f d43c 88b3 443c ce6f 47be
000002b0: f6bf 2abe 642a febc e7a4 87be 1f00 cd3d
000002c0: 1c7c b5bd 8227 0cbe 9bd3 3f3d ccd5 85bd
000002d0: aa07 fc3b a55d 7dbe c810 863d 5b85 70be
000002e0: 74ca c33d 8992 903d 916d 923d 8896 23be
000002f0: e6a4 ef3d c51b a9bd be51 0dbe 9d6d 0e3e
00000300: dd4a 49be db84 c93d 9717 a83d 52c2 74be
00000310: 1a71 ca3d 9b13 bd3d effe 83bc 80aa 3cbe
00000320: 3c6e 98be c2ac 82be 56d4 1f3d 4616 96bd
00000330: 26f7 57be 8ff7 6cbe aecc 87be 3646 7cbe
00000340: 9a3a 49be c75d 6c3d c5ef 89be 89c5 7fbe
00000350: c440 72be 4cfe ee3d 13e9 ac3c 4f28 b23c
00000360: 4de2 a2be 273a e5bc f4e1 40be 4e02 80be
00000370: 265b 45be 4cad 07be 6412 82be c1df d53c
00000380: 6d9b 5bbe e9df af3d 46f0 ff3d 4f5b c6bd
00000390: 6d86 893d 67f5 a7be 2875 043d 7294 40be
000003a0: 3003 a2be a68e ff3a 1ede d33c d50e 30be
000003b0: d728 e8bc 0f47 2b3d bcf6 af3d 788c d83d
000003c0: d66d 64be ceb1 69be 3584 923d e540 aabd
000003d0: 896b 78bc 8fad 4cbe 1e0d 053d 1ec2 de3d
000003e0: 764e 0fbe df53 a43d 2932 9d3d cbe0 fd3d
000003f0: ac41 2fbe cb20 e6bd efec 61be 4f61 4cbe

fc2.bias f4 [10]
-0.12933692 0.27428833 -0.035892308 -0.006228636 0.049630087 -0.20485383 -0.0049821236 -0.14853239
-0.035364144 0.12543705
00000000: e670 04be 856f 8c3e d003 13bd 9619 ccbb
00000010: eb48 4b3d 34c5 51be 1541 a3bb e018 18be
00000020: fed9 10bd 9272 003e
