mnist_cnn.pt (torch, 603724 bytes, 16 tensors)

conv1.weight f4 [8, 1, 3, 3]
-0.082521826 0.06832359 -0.34911674 0.1544454 -0.04432412 0.1759382 0.018811952 0.07658208
0.18554577 0.07556565 0.1983185 -0.07216791 0.040180318 0.04216593 0.035495166 -0.022401039
0.2538766 0.083003044 -0.16646387 -0.14796919 -0.059573866 -0.13675584 -0.12478001 -0.032746322
0.24797706 0.22404572 -0.2563243 0.14539024 0.1850151 0.3858114 0.14930816 -0.28476453
-0.2892007 -0.29665315 0.15424722 -0.13424908 0.07417381 -0.070563525 0.36090687 -0.21785526
0.19027805 0.049154863 -0.31080183 0.06355644 -0.13030969 -0.0029261187 -0.12794577 -0.0379455
-0.38027772 -0.18657324 0.16230994 -0.1226071 0.29769185 0.21671692 -0.1326724 -0.23580861
0.16387112 0.013180634 -0.10365325 0.23955488 0.18434657 0.3855306 -0.193587 -0.11612175
0.015713906 0.10127191 -0.23931503 -0.19068833 0.22210717 -0.09854989 0.15004991 0.0661549
00000000: 3401 a9bd 3ded 8b3d 6ebf b2be ef26 1e3e
00000010: 358d 35bd 2529 343e 861b 9a3c 11d7 9c3d
00000020: b6ff 3d3e 2ac2 9a3d 0114 4b3e c5cc 93bd
00000030: 1e94 243d 2fb6 2c3d 6163 113d 6282 b7bc
00000040: 1dfc 813e 80fd a93d 8175 2abe 3c85 17be
00000050: ba03 74bd b909 0cbe a98c ffbd 0221 06bd
00000060: b3ed 7d3e 3e6c 653e f03c 83be 2ee1 143e
00000070: 9974 3d3e 1289 c53e 3de4 183e a8cc 91be
00000080: 1d12 94be ece2 97be fcf2 1d3e 9778 09be
00000090: 70e8 973d 9c83 90bd c9c8 b83e 7315 5fbe
000000a0: 40d8 423e 9c56 493d 6b21 9fbe e129 823d
000000b0: e76f 05be 20c4 3fbb 3704 03be be6c 1bbd
000000c0: c3b3 c2be 0e0d 3fbe 9434 263e 6e19 fbbd
000000d0: 116b 983e 0aeb 5d3e 46db 07be d077 71be
000000e0: d5cd 273e 96f3 573c 2848 d4bd e04d 753e
000000f0: 59c5 3c3e 4464 c53e ac3b 46be 3dd1 edbd
00000100: 73ba 803c a667 cf3d 000f 75be cd43 43be
00000110: 1070 633e 86d4 c9bd afa6 193e 387c 873d

conv1.bias f4 [8]
0.10938809 0.07326552 0.12120215 0.16513446 -0.30873796 0.16776972 -0.23437583 -0.25126395
00000000: dd06 e03d 3c0c 963d d538 f83d 0219 293e
00000010: e712 9ebe d3cb 2b3e 3800 70be aba5 80be

bn1.weight f4 [8]
0.96649295 0.9789261 1.112383 0.9787345 0.97427803 1.0719368 1.0005815 0.94861
00000000: 156c 773f e79a 7a3f 9162 8e3f 588e 7a3f
00000010: 496a 793f 3a35 893f 0e13 803f 1bd8 723f

bn1.bias f4 [8]
-0.0663959 -0.044558175 -0.006664682 -0.012591448 -0.028584797 -0.029082404 -0.086743094 -0.13199522
00000000: 93fa 87bd a282 36bd 6863 dabb 5c4c 4ebc
00000010: aa2a eabc 393e eebc 5da6 b1bd c129 07be

bn1.running_mean f4 [8]
0.12641072 0.12431304 0.08628187 0.16644251 -0.307128 0.15390621 -0.20842108 -0.2586785
00000000: d071 013e d697 fe3d 8db4 b03d e86f 2a3e
00000010: e23f 9dbe 9799 1d3e 566c 55be 8271 84be

bn1.running_var f4 [8]
0.13648666 0.32725525 0.24868976 0.26346093 0.18829803 0.40393105 0.277551 0.19585423
00000000: 29c3 0b3e 008e a73e 87a8 7e3e 5ae4 863e
00000010: 33d1 403e 0dd0 ce3e 2a1b 8e3e 038e 483e

conv2.weight f4 [16, 8, 3, 3]
0.018467346 -0.032265812 0.028532047 -0.05581472 -0.074877225 0.070453264 -0.047977895 0.04210944
0.0030634275 -0.081417136 -0.015937176 -0.051414363 -0.07746541 -0.06260654 0.0064971466 -0.025810588
-0.08677061 -0.09411933 0.16684788 0.009597106 0.051646445 0.0031388875 -0.20216805 -0.15652925
-0.047616135 -0.10924064 -0.02597328 0.0522081 0.06961201 0.09537741 0.091877274 -0.038773246
0.07021372 0.10789482 0.099959366 0.069935896 -0.072691694 -0.14737038 -0.10719429 -0.04239903
0.0035349356 -0.13982761 -0.0072766477 -0.16505733 -0.15265591 0.05841485 0.037112802 0.108364925
-0.022993568 0.067582026 0.16710995 0.0897643 0.0994472 0.086109236 0.098600015 0.06343606
-0.0745129 -0.038267955 -0.024860963 0.031232325 -0.078478135 0.02248913 0.03397229 0.024055919
0.012805468 0.024657866 0.06834819 0.065003626 0.0043183113 0.10436203 0.008227875 -0.005619891
-0.11714157 -0.07952636 -0.083394945 -0.022403212 0.12322365 0.0124826655 -0.08274549 0.039212786
0.07256686 0.000921231 -0.11166447 0.0014317776 -0.101528555 -0.05003023 -0.10701675 -0.09319747
-0.05685759 0.03513456 0.044965554 0.09045986 0.17211707 0.057027277 0.032409884 0.018769538
-0.085368894 0.09339346 -0.07294302 0.027269695 -0.0335821 0.033559702 0.031895 0.17661968
-0.06938903 0.0003097324 0.033113312 -0.07118329 0.038128827 -0.023478542 -0.07511985 -0.00082391244
0.058042835 -0.10847982 0.016683184 0.05372638 0.08015945 -0.065271236 0.042782392 -0.0846161
0.14312752 0.014371994 0.11637871 0.088934824 0.023513785 0.007071441 -0.0121346675 0.03573872
0.01697086 0.017235503 -0.10707733 0.102738746 0.13284633 0.12692349 0.07374873 -0.10397192
-0.10694587 0.08576924 -0.07586227 0.1151576 -0.07665685 -0.04180534 0.07297663 -0.11383937
0.0076981355 0.1395763 0.16042551 0.103577316 0.020521738 -0.02320973 0.12101746 0.023021359
0.05018616 -0.01931411 -0.07934385 0.07921338 0.0016970906 -0.12140316 -0.08857064 -0.07025399
0.02781047 0.02398308 -0.0712447 0.06679173 -0.03329777 0.0009341788 0.047316406 0.07772828
0.1360997 -0.01292739 0.035327412 0.06863463 -0.008912667 -0.034732725 0.044059042 0.06290792
0.034968372 -0.05616143 0.11197236 0.17251293 -0.039524496 0.09873043 0.054806676 -0.08594584
0.022768572 -0.07023618 0.049455836 -0.104430124 0.039210428 0.007488675 0.032621242 0.15857396
-0.074039884 -0.05479705 -0.10333409 -0.091337994 -0.1113603 -0.003459915 -0.1103167 -0.027393706
0.16234815 0.034973413 -0.03809979 -0.02497392 -0.11601582 0.07864368 0.0039905054 -0.001744967
-0.027236354 -0.049861196 0.04928135 0.035152588 -0.014132784 -0.12311193 -0.120395124 -0.024446039
-0.048805036 -0.042733993 -0.03374307 -0.06215036 -0.034277502 -0.04574356 -0.041508045 -0.080472715
-0.061636712 0.077635735 -0.006582783 0.073090225 -0.021397484 -0.036597967 -0.126471 -0.0556094
0.04033821 -0.12870596 -0.050665118 0.051745582 -0.008060626 0.012749238 -0.046668883 -0.047082193
-0.03530103 -0.10716405 -0.028269436 -0.004671065 -0.0135982875 0.09227563 -0.051047754 0.030975848
0.09705121 0.010396574 0.13388824 0.008345064 -0.009418118 -0.045935974 -0.08576408 -0.08008576
00000000: d548 973c 2829 04bd 0abc e93c fa9d 64bd
00000010: 3b59 99bd cd49 903d 7884 44bd f37a 2c3d
00000020: c9c3 483b 07be a6bd ae8e 82bc de97 52bd
00000030: 2fa6 9ebd dc37 80bd 04e6 d43b ba70 d3bc
00000040: cab4 b1bd a3c1 c0bd 2cda 2a3e 2e3d 1d3c
00000050: 398b 533d cbb5 4d3b 2405 4fbe 3449 20be
00000060: 2309 43bd 8fb9 dfbd ebc5 d4bc 29d8 553d
00000070: be90 8e3d 3b55 c33d 272a bc3d b2d0 1ebd
00000080: 36cc 8f3d f6f7 dc3d 7fb7 cc3d 8d3a 8f3d
00000090: 62df 94bd 43e8 16be ae88 dbbd 9baa 2dbd
000000a0: 61aa 673b f82e 0fbe f270 eebb ca04 29be
000000b0: d551 1cbe 6944 6f3d 9803 183d 6eee dd3d
000000c0: 025d bcbc 7268 8a3d df1e 2b3e 58d6 b73d
000000d0: f9aa cb3d 0a5a b03d ceee c93d c4ea 813d
000000e0: 389a 98bd dcbe 1cbd 38a9 cbbc efda ff3c
000000f0: 25b9 a0bd 203b b83c 8726 0b3d eb10 c53c
00000100: 07ce 513c 4bff c93c 23fa 8b3d 9f20 853d
00000110: 9f80 8d3b c3bb d53d 36ce 063c 1027 b8bb
00000120: ebe7 efbd b7de a2bd f8ca aabd f186 b7bc
00000130: ae5c fc3d 1884 4c3c 7876 a9bd 969d 203d
00000140: ef9d 943d c47e 713a 57b0 e4bd 7caa bb3a
00000150: 34ee cfbd 80ec 4cbd 992b dbbd 51de bebd
00000160: 81e3 68bd 42e9 0f3d cd2d 383d 0543 b93d
00000170: 753f 303e 6f95 693d 3ac0 043d 93c2 993c
00000180: e3d5 aebd 1245 bf3d 2663 95bd b264 df3c
00000190: 628d 09bd e675 093d 55a4 023d cadb 343e
000001a0: d61b 8ebd 9463 a239 d3a1 073d 8bc8 91bd
000001b0: f92c 1c3d 1256 c0bc 70d8 99bd d4fb 57ba
000001c0: 53be 6d3d ab2a debd 2cab 883c 3110 5c3d
000001d0: a32a a43d edac 85bd 973c 2f3d 354b adbd
000001e0: 0590 123e 8378 6b3c f657 ee3d 7623 b63d
000001f0: fb9f c03c 8cb7 e73b 7cd0 46bc c462 123d
00000200: 7906 8b3c 7831 8d3c 5c4b dbbd b168 d23d
00000210: de08 083e 3bf8 013e 9309 973d 3bef d4bd
00000220: 7006 dbbd c9a7 af3d ae5d 9bbd bfd7 eb3d
00000230: 44fe 9cbd 143c 2bbd c574 953d 9e24 e9bd
00000240: a440 fc3b 17ed 0e3e 9646 243e 5820 d43d
00000250: 341d a83c 5522 bebc 01d8 f73d 4a97 bc3c
00000260: 0190 4d3d a038 9ebc 077f a2bd a03a a23d
00000270: e970 de3a 38a2 f8bd 8664 b5bd 53e1 8fbd
00000280: c8d2 e33c 2a78 c43c bee8 91bd 1aca 883d
00000290: 3e63 08bd aee3 743a d9ce 413d 0130 9f3d
000002a0: b85d 0b3e 67cd 53bc 7ab3 103d 5090 8c3d
000002b0: 6f06 12bc e743 0ebd 4177 343d ded5 803d
000002c0: ff3a 0f3d 8709 66bd c451 e53d 3ba7 303e
000002d0: 70e4 21bd 2e33 ca3d f77c 603d 5f04 b0bd
000002e0: 2885 ba3c fdd7 8fbd 3492 4a3d 76df d5bd
000002f0: 1d9b 203d 8f63 f53b da9d 053d 3661 223e
00000300: 39a2 97bd df72 60bd d3a0 d3bd 6a0f bbbd
00000310: de10 e4bd bebf 62bb b9ed e1bd c468 e0bc
00000320: 983e 263e 4840 0f3d 870e 1cbd 1b96 ccbc
00000330: b499 edbd f00f a13d c9c2 823b 60b7 e4ba
00000340: c61e dfbc 413b 4cbd 3edb 493d 29fc 0f3d
00000350: 318d 67bc 1c22 fcbd b891 f6bd 0f43 c8bc
00000360: cae7 47bd d709 2fbd 2c36 0abd 6091 7ebd
00000370: 9166 0cbd 995d 3bbd 5704 2abd e1ce a4bd
00000380: c776 7cbd 7cff 9e3d 63b4 d7bb 54b0 953d
00000390: c749 afbc c0e7 15bd 9d81 01be afc6 63bd
000003a0: ae39 253d 7fcb 03be 3a86 4fbd 2df3 533d
000003b0: b710 04bc 2ee2 503c df27 3fbd 42d9 40bd
000003c0: d097 10bd d378 dbbd 4e95 e7bc bc0f 99bb
000003d0: 5acb 5ebc 01fb bc3d 7317 51bd 10c1 fd3c
000003e0: c9c2 c63d 6456 2a3c 001a 093e bcb9 083c
000003f0: 734e 1abc 5c27 3cbd 14a5 afbd 0104 a4bd

conv2.bias f4 [16]
0.08632098 -0.035734847 -0.027677128 -0.03169705 -0.0057002245 -0.05160771 0.016140768 -0.075942956
0.04848961 -0.09882984 -0.042718247 -0.08232617 0.07942263 0.08094035 -0.09369415 -0.064293645
00000000: 0ec9 b03d b45e 12bd 25bb e2bc c4d4 01bd
00000010: f3c8 babb 9b62 53bd a539 843c fb87 9bbd
00000020: 0b9d 463d 4d67 cabd 54f9 2ebd 9f9a a8bd
00000030: 55a8 a23d 0ec4 a53d b8e2 bfbd 63ac 83bd

bn2.weight f4 [16]
1.0827826 0.9521201 1.0461338 1.1443454 0.95190865 0.95565045 1.0378047 1.186433
0.9449738 1.0850339 1.0756452 1.1877431 1.050928 1.1381148 0.9919877 1.1054406
00000000: 9f98 8a3f 25be 733f b6e7 853f e979 923f
00000010: 49b0 733f 82a5 743f c9d6 843f 09dd 973f
00000020: cee9 713f 64e2 8a3f beae 893f f707 983f
00000030: cf84 863f bfad 913f e8f2 7d3f 147f 8d3f

bn2.bias f4 [16]
-0.16605799 -0.23431857 -0.10650268 -0.070880175 -0.24489702 -0.2170698 0.02215731 -0.07763445
-0.20174864 -0.09321271 -0.089578256 -0.016469583 -0.0462034 -0.08720437 -0.2590978 -0.08584509
00000000: 1b0b 2abe 35f1 6fbe 141e dabd a029 91bd
00000010: 49c6 7abe 8c47 5ebe 3f83 b53c cffe 9ebd
00000020: 3297 4ebe 4ee6 bebd ce74 b7bd 38eb 86bc
00000030: c73f 3dbd 3498 b2bd 78a8 84be 8dcf afbd

bn2.running_mean f4 [16]
-0.028250411 0.10357967 0.12931716 -0.005452876 -0.15648617 -0.1010682 -0.461671 0.017780855
0.15391845 0.23585786 0.017427491 -0.025321953 0.17382494 0.26493844 -0.12453805 0.18051037
00000000: 686d e7bc 9421 d43d b86b 043e 0aae b2bb
00000010: e93d 20be d8fc cebd 2460 ecbe 28a9 913c
00000020: cc9c 1d3e b984 713e 19c4 8e3c fc6f cfbc
00000030: 2aff 313e 03a6 873e ce0d ffbd b6d7 383e

bn2.running_var f4 [16]
0.19085132 0.26748905 0.14977017 0.14771277 0.13843936 0.60755026 0.314403 0.18265826
0.5033197 0.116892435 0.18516761 0.19290295 0.22257845 0.23758808 0.13186352 0.24892792
00000000: 876e 433e 53f4 883e 5a5d 193e 0442 173e
00000010: 0cc3 0d3e 6a88 1b3f 6ef9 a03e c40a 3b3e
00000020: 8fd9 003f 4d65 ef3d 949c 3d3e 5a88 453e
00000030: 9beb 633e 4a4a 733e 3b07 073e f6e6 7e3e

fc1.weight f4 [64, 2304]
0.012868951 0.001266344 0.016755307 0.007727571 0.018311718 0.019183164 -0.0019673998 0.019239627
0.05098458 0.038651373 0.030062946 0.0076918 -0.010693493 -0.023191575 0.027894221 0.01952932
0.0068482324 0.04849749 -0.010165565 0.030336155 0.012331681 0.039226413 0.041166533 0.032426342
-0.020557383 -0.005235762 0.0006089653 -0.03740979 0.006941579 -0.0069123683 0.0019944934 0.018875638
0.023164595 0.042203885 0.04757929 0.014575935 0.0012731429 -0.0018774425 0.012219946 -0.037661754
0.0046984125 -0.008555794 -0.008757493 -0.040793996 -0.03856112 0.01630392 0.0042590396 0.01599748
0.01186177 -0.006470838 -0.0252552 -0.013272381 -0.00042237336 -0.012864927 -0.03668361 -0.03242135
-0.059605725 -0.048504233 -0.04207714 0.01664405 -0.0027513623 0.004919677 0.0035702877 0.024045294
0.004294578 0.00973051 0.015387934 -0.0021501803 -0.031079967 -0.049830474 -0.042275093 -0.005030807
-0.009567524 0.015444095 -0.011015893 0.0026280687 -0.024865724 0.027573684 -0.004557538 -0.034149908
-0.026339345 -0.016688809 -0.038963664 -0.005804242 -0.02556746 0.004245903 -0.017909016 -0.031036887
-0.029061252 0.015302376 -0.011874206 0.0068380577 -0.025176877 -0.008758383 -0.02121986 -0.017484443
-0.01761383 -0.02368879 -0.0061058025 0.015584098 0.012014016 0.017168062 -0.023261132 0.0064488603
0.042047724 -0.007697723 -0.0197729 0.013246159 0.00081070676 0.021534089 0.010018687 0.019998
-0.012198217 0.019048145 0.026381189 0.007819731 0.024672417 0.01437283 -0.0031036816 -0.007040755
-0.020280115 -0.012066076 -0.011244802 0.00121305 0.014290898 0.024065971 0.028442563 0.015166628
-0.017337998 0.009809894 0.014538935 -0.0054084235 -0.008208368 0.0013084173 -0.015309339 -0.015566893
-0.013759851 0.017686773 0.017748881 -0.008446336 -0.0022784548 -0.015740793 -0.014787796 0.01356322
-0.028495314 0.00030273653 -0.03618259 -0.0043553393 0.017919011 -0.007824478 -0.010883391 -4.180849e-05
0.0028445753 -0.013023504 0.011670524 0.00325638 0.016812459 -0.018757394 -0.021037478 0.034835704
0.0048516924 -0.004753652 -0.030590361 -0.010154717 -0.04184497 -0.008051258 -0.007491312 0.009750629
-0.006936776 -0.03093883 0.009519949 -0.02495723 -0.021052793 -0.0021374181 -0.013392838 -0.019064995
-0.027655466 0.008798542 0.017816711 0.033722684 -0.012297205 -0.020591557 0.004291282 -0.01621656
-0.008832161 -0.012877628 0.0029518344 -0.024671087 -0.024396434 -0.03378815 0.011728651 0.016819032
0.0012326333 -0.018859554 -0.029334456 -0.016506588 -0.02079419 0.016958468 -0.013964481 0.013569593
0.012473876 0.038010452 0.039525148 0.013620645 -0.022154076 0.003448872 0.01170753 -0.02002794
-0.012771195 -0.011319142 0.03857279 0.029522792 0.03795987 0.03713444 0.016937347 0.0064374343
-0.026904723 0.005909452 -0.023231825 -0.037407402 -0.008560622 0.007009231 0.064413585 0.011677156
0.021921821 -0.004886985 0.0077918977 -0.01353604 -0.03437473 -0.0042447005 -0.02083906 -0.013545532
0.018840557 -0.032842573 -0.011998487 -0.012294289 -0.00577832 -0.0060721273 -0.003849174 -0.01792443
-0.0071459375 0.021217061 0.010868596 0.020846143 0.044614945 -0.003254838 -0.016335355 -0.024131106
0.02249843 -0.0066020177 -0.026691465 -0.028952977 -0.023308054 -0.025402725 0.017383836 0.016086722
00000000: 4bd8 523c 74fb a53a 6d42 893c 9037 fd3b
00000010: 7502 963c 0326 9d3c 7eef 00bb 6c9c 9d3c
00000020: 35d5 503d e750 1e3d 9146 f63c 7f0b fc3b
00000030: c333 2fbc 42fc bdbc 6c82 e43c f4fb 9f3c
00000040: 2367 e03b 4ea5 463d 788d 26bc 8783 f83c
00000050: d20a 4a3c e0ab 203d 3d9e 283d 7cd1 043d
00000060: f567 a8bc c190 abbb f8a2 1f3a 023b 19bd
00000070: 2f76 e33b 2681 e2bb 0cb6 023b 15a1 9a3c
00000080: adc3 bd3c fbdd 2c3d 80e2 423d e7cf 6e3c
00000090: 96df a63a 8414 f6ba 2b36 483c 3643 1abd
000000a0: 24f5 993b 9a2d 0cbc 977b 0fbc 9b17 27bd
000000b0: 44f2 1dbd cc8f 853c 6a8f 8b3b 260d 833c
000000c0: df57 423c 5309 d4bb fee3 cebc 6774 59bc
000000d0: fe71 ddb9 6ac7 52bc 8e41 16bd 40cc 04bd
000000e0: 2225 74bd 60ac 46bd 1459 2cbd 1a59 883c
000000f0: 3350 34bb 3e35 a13b 7dfb 693b a3fa c43c
00000100: 88b9 8c3b b86c 1f3c ac1d 7c3c 0aea 0cbb
00000110: 6a9b febc 0a1b 4cbd a628 2dbd 78d9 a4bb
00000120: 1bc1 1cbc 3b09 7d3c 017c 34bc ad3b 2c3b
00000130: 34b3 cbbc 35e2 e13c 6657 95bb c6e0 0bbd
00000140: 9cc5 d7bc f8b6 88bc 5d98 1fbd 8331 bebb
00000150: da72 d1bc 3721 8b3b eeb5 92bc 1241 febc
00000160: dd11 eebc d1b6 7a3c 088c 42bc c911 e03b
00000170: bd3f cebc 527f 0fbc 46d5 adbc 893b 8fbc
00000180: e14a 90bc fe0e c2bc 2f13 c8bb 7254 7f3c
00000190: 6fd6 443c 09a4 8c3c 218e bebc f650 d33b
000001a0: 3c3a 2c3d 2e3d fcbb c7fa a1bc 6b06 593c
000001b0: 9c85 543a 4268 b03c 6b25 243c d8d2 a33c
000001c0: 08db 47bc db0a 9c3c 5d1d d83c 541e 003c
000001d0: cf1d ca3c 057c 6b3c 2367 4bbb 22b6 e6bb
000001e0: 7c22 a6bc cab0 45bc 1e3c 38bc 34ff 9e3a
000001f0: 5f24 6a3c 0026 c53c 6100 e93c 737d 783c
00000200: 6b08 8ebc adb9 203c b734 6e3c 2539 b1bb
00000210: 647c 06bc 337f ab3a 06d4 7abc 480c 7fbc
00000220: 0071 61bc dae3 903c 1a66 913c 8062 0abc
00000230: 2152 15bb d6f2 80bc 8348 72bc 4538 5e3c
00000240: 016f e9bc 9cb8 9e39 3234 14bd 3cb7 8ebb
00000250: e4ca 923c 3d32 00bc 4050 32bc 865b 2fb8
00000260: 0e6c 3a3b 8960 55bc ba35 3f3c fe68 553b
00000270: 48ba 893c 1ba9 99bc ca56 acbc e2af 0e3d
00000280: f2fa 9e3b 86c4 9bbb a398 fabc f85f 26bc
00000290: a265 2bbd 6ce9 03bc ae79 f5bb 1ac1 1f3c
000002a0: e54d e3bb 6e73 fdbc 8ff9 1b3c 1b73 ccbc
000002b0: e876 acbc ed13 0cbb a26d 5bbc 312e 9cbc
000002c0: b78d e2bc c327 103c 5af4 913c cc20 0a3d
000002d0: 377a 49bc a0af a8bc e29d 8c3b 97d8 84bc
000002e0: c5b4 10bc b0fc 52bc 9073 413b 051b cabc
000002f0: 08db c7bc 7165 0abd 8729 403c 11c8 893c
00000300: 4f90 a13a 5a7f 9abc d04e f0bc d338 87bc
00000310: 9458 aabc 7cec 8a3c 47cb 64bc 0053 5e3c
00000320: 3a5f 4c3c d9b0 1b3d 1fe5 213d 2029 5f3c
00000330: 777c b5bc 7806 623b f1d0 3f3c a211 a4bc
00000340: 463e 51bc ec73 39bc 80fe 1d3d c8d9 f13c
00000350: cf7b 1b3d 481a 183d 31c0 8a3c 1df1 d23b
00000360: 4b67 dcbc 14a4 c13b ab50 bebc 8138 19bd
00000370: da41 0cbc b1ad e53b 45eb 833d 8b51 3f3c
00000380: 6495 b33c 0023 a0bb 2d53 ff3b 44c6 5dbc
00000390: 84cc 0cbd 2117 8bbb adb6 aabc 14ee 5dbc
000003a0: 8357 9a3c ef85 06bd 4d95 44bc fc6d 49bc
000003b0: 1058 bdbb b2f8 c6bb 6c42 7cbb 41d6 92bc
000003c0: 7828 eabb 67cf ad3c 3212 323c 88c5 aa3c
000003d0: 29be 363d 1f4f 55bb b9d1 85bc 99ae c5bc
000003e0: a14e b83c bd55 d8bb 0fa8 dabc cb2e edbc
000003f0: 88f0 bebc 6019 d0bc 8c68 8e3c 4dc8 833c

fc1.bias f4 [64]
-0.02019529 -0.043312076 -0.036522396 -0.025919689 -0.024929404 -0.008028619 -0.017968817 -0.019663908
0.023271294 -0.028771298 -0.035509467 -0.020099908 0.0007316623 0.010683111 -0.024647603 -0.0173184
0.012777839 -0.037105374 0.013202726 -0.029730175 -0.0050015002 0.005594797 -0.018139524 -0.031655587
0.016588856 -0.013887965 -0.013621281 -0.010541893 -0.01771193 -0.016005015 -0.022807173 0.015816733
0.0028164655 -0.04659663 0.0021888847 -0.017570397 -0.021543618 -0.012954034 -0.027527526 -0.032452196
-0.036641587 -0.00071629166 0.018553408 -0.016428702 -0.023690434 0.014153689 -0.029285626 -0.00586864
-0.03564847 -0.032007962 0.008385964 0.004679404 -0.017614225 -0.016917512 -0.050259802 0.031730883
-0.014090648 -0.056437884 -0.022307744 0.013859272 -0.0363796 -0.0017464459 -0.030351898 -0.03918574
00000000: 9870 a5bc 0168 31bd 8298 15bd 8755 d4bc
00000010: c038 ccbc 788a 03bc 5733 93bc 3416 a1bc
00000020: 71a3 be3c c9b1 ebbc 6072 11bd 90a8 a4bc
00000030: 07cd 3f3a 3708 2f3c c5e9 c9bc 51df 8dbc
00000040: 245a 513c cefb 17bd 3f50 583c b28c f3bc
00000050: a0e3 a3bb 8f54 b73b 5799 94bc 4aa9 01bd
00000060: 5ae5 873c 598a 63bc cb2b 5fbc e7b7 2cbc
00000070: 9c18 91bc f31c 83bc 1cd6 babc 1892 813c
00000080: 7394 383b 1cdc 3ebd 6473 0f3b cbef 8fbc
00000090: 3e7c b0bc 283d 54bc 6881 e1bc 98ec 04bd
000000a0: 7d15 16bd 85c5 3bba 51fd 973c 7c95 86bc
000000b0: 7112 c2bc e0e4 673c 69e8 efbc b84d c0bb
000000c0: 2104 12bd c81a 03bd 4865 093c b055 993b
000000d0: b54b 90bc 9896 8abc 39dd 4dbd 3ef8 013d
000000e0: 76dc 66bc 692b 67bd bbbe b6bc 0012 633c
000000f0: c702 15bd 00e9 e4ba 8ba4 f8bc 3a81 20bd

fc2.weight f4 [10, 64]
0.05547233 -0.18906789 -0.18175592 0.022855258 -0.019389562 -0.1326353 0.10248637 -0.20993708
-0.19546987 -0.026356418 -0.11417442 0.096749604 -0.08483765 -0.2042634 0.057118244 -0.14708796
-0.23423956 0.056365527 -0.085443094 0.0153775485 0.043865394 -0.018662408 0.10824992 0.059048615
0.118252434 0.01316774 0.07480522 0.03349383 0.038823515 -0.15315118 -0.16232793 -0.09073621
-0.15093173 -0.15913492 -0.22534057 -0.14055139 -0.14065595 0.10727763 0.05727949 0.08518655
0.01015985 -0.10208718 -0.024383035 0.16207334 0.096064255 0.07362305 -0.14126538 -0.11135523
-0.06175557 0.020775769 -0.21852474 0.096992955 0.02774545 -0.19600101 0.07134318 -0.10476605
-0.0017817682 -0.15127547 -0.17755298 0.12907895 -0.12784873 0.08352137 -0.11667095 -0.05102187
0.031423297 -0.12105075 -0.14008088 -0.23469862 -0.19013086 -0.13327542 -0.08961827 0.05130909
0.15057535 -0.030529875 -0.09630255 -0.08526941 0.14098543 -0.12975758 -0.19918536 -0.15919259
0.07409144 0.06734993 0.15039836 0.033741802 0.017166367 -0.0112974085 0.12348065 -0.17590079
0.10242051 -0.20678495 -0.017675942 -0.21965796 0.11755161 -0.15266876 0.12012132 0.051318925
0.102345474 -0.13425961 0.13356452 -0.17815433 -0.1608866 0.120632336 -0.16378109 -0.08504984
-0.13230021 -0.009925954 -0.04612325 -0.16815257 -0.050679766 -0.006265526 -0.14864148 -0.09189253
0.11155255 -0.25821757 0.14245985 -0.074859045 -0.116690636 -0.22415245 -0.08300516 0.12588924
-0.038928308 -0.09935206 -0.09668711 -0.12462689 -0.12977025 0.084695615 -0.106163524 -0.13345408
-0.22034582 -0.15597667 -0.20357975 -0.08186041 0.117098495 -0.022525012 -0.07331907 0.027591657
-0.14635573 -0.07952094 0.079639085 -0.20139074 -0.0876535 -0.15718345 -0.10922081 -0.028143518
0.024508046 0.007233852 -0.040719416 -0.18351874 0.060924254 -0.12196106 0.088241644 0.004774809
-0.1340069 -0.1656387 0.093406 -0.1852476 0.09659603 -0.19993801 -0.12505166 -0.09485008
0.051586322 -0.009124655 -0.062112007 0.087845534 -0.10376727 -0.12016298 0.064700685 0.13734181
-0.032791458 0.020824071 0.01143131 -0.12688744 -0.120750286 -0.005676039 -0.19747232 0.12106359
-0.0025122378 -0.061059702 0.036347274 -0.06534746 0.00752116 -0.19360472 0.07701667 -0.16494201
0.09658171 0.06862328 0.06215474 -0.10658112 0.11068203 -0.0825725 -0.054008663 0.1253749
-0.11702211 0.107121296 0.101734795 -0.14663132 0.11247696 0.08880251 0.034724273 -0.13235281
-0.21194021 -0.17967436 0.048014 -0.006332521 -0.074781254 -0.12871021 -0.1979587 -0.19098262
-0.113942906 0.084078625 -0.18022153 -0.15817235 -0.14820957 0.072833136 0.01729777 0.04169051
-0.23789188 0.009606117 -0.10523499 -0.14549534 -0.12460404 -0.056606274 -0.15217818 0.05546922
-0.15901142 0.067062005 0.111138254 -0.013154332 0.080346905 -0.22735448 0.07322203 -0.11675868
-0.20796789 -3.028553e-05 0.025899505 -0.10774646 0.023712633 0.04712371 0.09962431 0.119486935
-0.09396384 -0.15976168 0.07705312 -0.08312638 -0.015071726 -0.07654729 0.030965332 0.09351714
-0.05417435 0.077855065 0.0916721 0.11250715 -0.106083654 -0.112367235 -0.123330556 -0.11215593
00000000: f436 633d 039b 41be 391e 3abe f33a bb3c
00000010: dcd6 9ebc 8cd1 07be 60e4 d13d bff9 56be
00000020: 4129 48be 6ae9 d7bc 47d4 e9bd a824 c63d
00000030: 5dbf adbd 6d2a 51be d2f4 693d 3a9e 16be
00000040: 7fdc 6fbe 8adf 663d cafc aebd 1df2 7b3c
00000050: 33ac 333d e8e1 98bc 22b2 dd3d f6dc 713d
00000060: 552e f23d 81bd 573c 7b33 993d d430 093d
00000070: 6805 1f3d aad3 1cbe 4b39 26be e8d3 b9bd
00000080: d98d 1abe 44f4 22be aebf 66be b4ec 0fbe
00000090: 1d08 10be 60b4 db3d e69d 6a3d 4976 ae3d
000000a0: 8075 263c 1513 d1bd eebe c7bc 8ef6 253e
000000b0: 56bd c43d aec7 963d dfa7 10be 360e e4bd
000000c0: 69f3 7cbd f231 aa3c f3c4 5fbe 3ea4 c63d
000000d0: 6d4a e33c 7db4 48be 601c 923d 958f d6bd
000000e0: 388a e9ba f5e7 1abe 73d0 35be 462d 043e
000000f0: c7ea 02be 410d ab3d 2ef1 eebd 4ffc 50bd
00000100: b7b5 003d 75e9 f7bd 5d71 0fbe d654 70be
00000110: aab1 42be 5a79 08be c989 b7bd 7b29 523d
00000120: 6d30 1a3e ca19 fabc 453a c5bd baa1 aebd
00000130: 7c5e 103e 2cdf 04be 3ff7 4bbe 6203 23be
00000140: 41bd 973d c3ee 893d 0702 1a3e d834 0a3d
00000150: 7ba0 8c3c c418 39bc 6ce3 fc3d 561f 34be
00000160: d8c1 d13d 6fbf 53be 23cd 90bc 04ee 60be
00000170: e6be f03d 3355 1cbe 2b02 f63d cb33 523d
00000180: 819a d13d 5a7b 09be 23c5 083e 176e 36be
00000190: 75bf 24be 160e f73d 3bb6 27be 9c2e aebd
000001a0: b579 07be 78a0 22bc bceb 3cbd 3030 2cbe
000001b0: 9695 4fbd 0b4f cdbb 7935 18be 2732 bcbd
000001c0: aa75 e43d 1835 84be ffe0 113e b34f 99bd
000001d0: 80fb eebd 3888 65be 9cfe a9bd 1ce9 003e
000001e0: 4a73 1fbd 1879 cbbd e403 c6bd 623c ffbd
000001f0: 7ee2 04be e574 ad3d 436c d9bd 30a8 08be
00000200: 56a2 61be 59b8 1fbe 3677 50be 6ea6 a7bd
00000210: 56d1 ef3d 6086 b8bc 4f28 96bd e607 e23c
00000220: 47de 15be e0db a2bd d119 a33d 6039 4ebe
00000230: ae83 b3bd b3f4 20be 29af dfbd 3c8d e6bc
00000240: 19c5 c83c f309 ed3b 67c9 26bd 56ec 3bbe
00000250: b68b 793d b8c6 f9bd 09b8 b43d 0076 9c3b
00000260: 1b39 09be 319d 29be a54b bf3d 8cb1 3dbe
00000270: 24d4 c53d 8dbc 4cbe 8b0d 00be c240 c2bd
00000280: 2e4c 533d 947f 15bc 2969 7ebd 5ce8 b33d
00000290: ef83 d4bd 0218 f6bd cb81 843d 55a3 0c3e
000002a0: 5650 06bd 3e97 aa3c 644a 3b3c c8ee 01be
000002b0: ed4b f7bd 11fe b9bb 2f36 4abe 30f0 f73d
000002c0: 5ba4 24bb bd19 7abd e1e0 143d e4d4 85bd
000002d0: 1074 f63b 5140 46be eaba 9d3d 8fe6 28be
000002e0: a2cc c53d 5d8a 8c3d f895 7e3d 3447 dabd
000002f0: 43ad e23d c51b a9bd 3038 5dbd 4762 003e
00000300: 4aa9 efbd 6962 db3d 555a d03d 8526 16be
00000310: 525a e63d 17de b53d 0a3b 0e3d 7f87 07be
00000320: db06 59be 8efc 37be 54aa 443d 0981 cfbb
00000330: ea26 99bd 9ccc 03be afb5 4abe f390 43be
00000340: e65a e9bd 6a31 ac3d fe8b 38be eff7 21be
00000350: 40c4 17be 8a29 953d 0eb4 8d3c abc3 2a3d
00000360: ee99 73be fa62 1d3c 7185 d7bd bbfc 14be
00000370: 6730 ffbd fbdb 67bd 99d4 1bbe b133 633d
00000380: e4d3 22be ce57 893d 749c e33d 4485 57bc
00000390: eb8c a43d 9dcf 68be 6ff5 953d 2d1f efbd
000003a0: 89f5 54be ae0d feb7 332b d43c 2daa dcbd
000003b0: ff40 c23c cb04 413d d507 cc3d 91b5 f43d
000003c0: 1d70 c0bd 9198 23be 07ce 9d3d 2a3e aabd
000003d0: 67ef 76bc d3c4 9cbd 02ab fd3c ea85 bf3d
000003e0: ece5 5dbd 7a72 9f3d 95be bb3d 266a e63d
000003f0: 6342 d9bd cb20 e6bd bb94 fcbd 02b2 e5bd

fc2.bias f4 [10]
-0.10819237 0.21484834 -0.04150165 0.0151901785 0.098891534 -0.14427805 0.054752648 -0.14268574
-0.017613541 0.09158165
00000000: f693 ddbd 3401 5c3e a2fd 29bd 3ae0 783c
00000010: a587 ca3d a0bd 13be 5044 603d 361c 12be
00000020: 464a 90bc 298f bb3d
